model/model.pth (torch, 17216 bytes, 4 tensors)

linear1.weight f4 [256, 11]
0	0x3e9a1579	0.30094507
1	0xbd1c5911	-0.038170878
2	0xbf0b37de	-0.5438212
3	0xbc105d3a	-0.008811289
4	0x3de64f3c	0.112455815
5	0xbcdd4d71	-0.027014466
6	0x3da6c0a6	0.081422135
7	0x3e171e25	0.14757593
8	0x3d8d2105	0.068910636
9	0x3e921a7e	0.28535837
10	0xbc684247	-0.014175958
11	0xbbf13798	-0.0073613636
12	0x3d833d5c	0.06408188
13	0x3e27b3c0	0.16377163
14	0x3ba43b7f	0.0050119753
15	0x3e9603b3	0.29299697
16	0x3e2dbf10	0.16967416
17	0xbea44ce3	-0.3208991
18	0xbe59fc8e	-0.21287748
19	0x3e89eef6	0.26940125
20	0xbeb6d096	-0.35706013
21	0x3e4a57f3	0.19760112
22	0x3ce0a99f	0.027424632
23	0xbeae7531	-0.34073785
24	0xbd3c8305	-0.046023387
25	0xbe03912a	-0.12848344
26	0x3efb1365	0.49038234
27	0xbd6f3df0	-0.058408678
28	0x3ef56124	0.47925675
29	0x3e91269d	0.28349772
30	0xbee007f5	-0.4375607
31	0x3e5eae2f	0.21746133
32	0xbe8c5c43	-0.2741414
33	0xbe855290	-0.26039553
34	0xbd2c5270	-0.042070806
35	0x3d30bc16	0.043148123
36	0x3d380e38	0.044935435
37	0xbd8ccb24	-0.068746835
38	0x3d3e6f4d	0.046492863
39	0xbb93f800	-0.004515648
40	0xbe933900	-0.28754425
41	0xbdf0a999	-0.11751098
42	0xbdeba074	-0.115052134
43	0xbde9ed3c	-0.11422202
44	0x3e19b364	0.15009838
45	0x3de857ee	0.11344896
46	0x3c950cc9	0.018194573
47	0xbd70e29c	-0.05880986
48	0xbe79eb86	-0.24406251
49	0x3d2006c3	0.03906895
50	0xbd797a89	-0.060907874
51	0x3e02b735	0.127652
52	0x3eb749e2	0.35798556
53	0x3ec3e9c2	0.3826428
54	0x3e838ef7	0.2569501
55	0x3dd24606	0.10267262
56	0x3de254f6	0.11051361
57	0x3e13e695	0.14443429
58	0xbe8c356b	-0.27384505
59	0x3cd71569	0.026255326
60	0xbc3fcd96	-0.01170673
61	0x3d0f0796	0.034919344
62	0x3e95cc83	0.29257593
63	0xbd6cf113	-0.057847094
64	0x3e15eedb	0.14641897
65	0x3e65bdaf	0.2243564
66	0xbe979ce9	-0.296119
67	0x3e79f3b5	0.24409373
68	0xbdc31fa1	-0.09527517
69	0x3ed1456d	0.4087328
70	0xbe45478f	-0.19265579
71	0xbe9f6f0e	-0.31139416
72	0xbda8d6e7	-0.08244114
73	0x3e31cd13	0.17363386
74	0x3e37d924	0.17953926
75	0xbe9f4aea	-0.31111842
76	0xbf1808d1	-0.5938845
77	0xbe8c4bcd	-0.2740158
78	0xbd692f9b	-0.056930166
79	0x3d39817c	0.0452895
80	0x3e973085	0.29529205
81	0x3e0a1ae2	0.13486817
82	0xbe8a1ed4	-0.26976645
83	0x3d0d4b0b	0.034495395
84	0xbea975b3	-0.3309761
85	0xbe21d857	-0.15805183
86	0x3e63292d	0.22183676
87	0xbdab217d	-0.08355997
88	0xbbd8da6f	-0.006617836
89	0x3d403040	0.046921015
90	0xbe476cf8	-0.19475162
91	0x3ed58285	0.4170114
92	0xbeaa2f5a	-0.3323925
93	0x3d6d0e58	0.057875007
94	0x3f0bc8c5	0.54603225
95	0x3e86e93c	0.2634982
96	0xbecd6656	-0.4011714
97	0xbf187f8e	-0.59569633
98	0xbd073a90	-0.033014834
99	0xbda3ea22	-0.08003642
100	0xbda346f5	-0.07972518
101	0x3eb6a30b	0.35671267
102	0x3979fdb4	0.00023841002
103	0x3c33d450	0.010975912
104	0x3e3e8ef5	0.18609221
105	0x3dd3ff92	0.103514805
106	0x3e880318	0.2656486
107	0x3edf2f1b	0.43590626
108	0x3e1738e1	0.14767791
109	0x3e0051ae	0.12531158
110	0x3c72ed1b	0.014827038
111	0xbe895077	-0.26819202
112	0x3ed722c8	0.42018723
113	0xbe0c233e	-0.13685319
114	0x3d061c38	0.032741755
115	0x3d944182	0.07239057
116	0xbe248a85	-0.16068466
117	0xbf02dc69	-0.5111757
118	0xbdf7c7aa	-0.1209863
119	0xbd0de64f	-0.034643468
120	0x3e062db8	0.13103378
121	0x3daeb947	0.085314326
122	0x3ec5e477	0.38650867
123	0xbe2b64e2	-0.16737702
124	0xbf217c84	-0.6308062
125	0x3c865c3e	0.016401406
126	0x3ea44691	0.32085088
127	0xbda66818	-0.08125323
128	0xbd8f9e25	-0.070125856
129	0xbf02b386	-0.5105518
130	0x3ec5fb51	0.38668302
131	0xbe2ef3cf	-0.17085193
132	0xbd4f763d	-0.05064987
133	0xbe6c91a8	-0.23102438
134	0x3e9c1941	0.30488017
135	0xbf356a87	-0.7086567
136	0xbf47310d	-0.7780922
137	0x3e186be7	0.14884911
138	0x3de26f07	0.11056333
139	0xbecaf0b7	-0.39636776
140	0xbec16e0d	-0.37779275
141	0x3eb49d89	0.3527644
142	0x3ece4c80	0.4029274
143	0x3e34b9e2	0.17649034
144	0x3e4a294d	0.19742317
145	0x3e9593f4	0.29214442
146	0xbde48fbc	-0.11160228
147	0x3caf5633	0.021403408
148	0xbe2e0fb8	-0.16998184
149	0xbdcd455f	-0.10022997
150	0x3e617f21	0.22021152
151	0x3eafd88d	0.34344903
152	0x3e27780b	0.16354387
153	0x3e4e0241	0.20118047
154	0x3e1126c8	0.1417495
155	0xbc3c1435	-0.011479427
156	0x3d22b9f0	0.039728105
157	0x3e9c06ab	0.30473837
158	0x3d98ffb3	0.07470646
159	0xbeb44ec4	-0.35216343
160	0xbede695d	-0.4343976
161	0xbeb95cef	-0.36203715
162	0xbe2c0edb	-0.16802542
163	0x3ea490d8	0.32141757
164	0x3eb2f83e	0.3495502
165	0x3ecb435f	0.39699838
166	0x3e592be5	0.2120815
167	0xbdcd9e90	-0.10040009
168	0xbe3e7c00	-0.1860199
169	0x3ecbc7cd	0.39800873
170	0xbeec1a6f	-0.46113917
171	0xbc2cde12	-0.010550993
172	0x3e3bf591	0.18355395
173	0xbed7406a	-0.42041332
174	0x3ee9a5a5	0.4563419
175	0x3cabb0dc	0.020958357
176	0x3ea55bd0	0.3229661
177	0x3e10a3a1	0.1412492
178	0xbdcce506	-0.1000462
179	0xbda0ed39	-0.07857747
180	0x3ddd8345	0.10816053
181	0xbd902adc	-0.07039425
182	0xbcb10666	-0.021609496
183	0x3ec5423b	0.38527092
184	0x3ee3ae09	0.44468716
185	0x3eeb1770	0.4591632
186	0x3edea1fb	0.43482956
187	0x3d325bf2	0.043544717
188	0xbe420c52	-0.18950012
189	0x3e48ae38	0.19597709
190	0xbd37d1b6	-0.04487773
191	0x3dc4376e	0.09580885
192	0x3e26808a	0.16259971
193	0x3dd4ba3a	0.103870824
194	0x3e8c32d2	0.27382523
195	0x3e9d23eb	0.30691466
196	0xb90b86b8	-0.0001330626
197	0x3e0aec04	0.13566595
198	0xbdc40cd0	-0.09572756
199	0x3dfa62e1	0.12225891
200	0xbe26cdb5	-0.16289409
201	0x3d8c8975	0.06862155
202	0x3dadedfc	0.084926575
203	0xbd1d0e57	-0.038343754
204	0x3db6d7b9	0.089278646
205	0x3eb28932	0.34870297
206	0x3e1c567f	0.1526737
207	0x3e843627	0.25822565
208	0x3e8a5916	0.27021092
209	0xbcac7762	-0.02105302
210	0x3cd9f7ef	0.026607482
211	0x3d046b9e	0.032329194
212	0x3cd0e3f8	0.025499329
213	0x3b947c6d	0.0045314343
214	0x3aa8b280	0.001287058
215	0x3c905878	0.01762031
216	0x3ebab49c	0.3646592
217	0x3eb8e4f3	0.36112174
218	0x3e9f933b	0.31167015
219	0x3ead1294	0.33803236
220	0x3e1afe37	0.15136038
221	0x3ed06942	0.40705305
222	0x3dfa31cd	0.1221653
223	0x3d7f10f2	0.06227202
224	0xbd1e3266	-0.038622282
225	0x3e0c755d	0.13716646
226	0x3de74731	0.112928756
227	0x3e8419fb	0.25801072
228	0x3ef1ba03	0.47212228
229	0x3edd5418	0.4322822
230	0x3e72fe21	0.23729755
231	0xbe3748ac	-0.17898816
232	0xbdfb0757	-0.12257259
233	0xbe0ff57c	-0.14058489
234	0x3e9c145f	0.30484292
235	0xbea21aec	-0.31661165
236	0x3ea19f51	0.3156686
237	0xbe583b11	-0.21116282
238	0x3db54888	0.08851725
239	0xbef39835	-0.47577062
240	0xbd055de3	-0.03256024
241	0xbee7b10e	-0.4525227
242	0xbea99f85	-0.33129516
243	0x3ec35ade	0.38155264
244	0xbedc3113	-0.4300619
245	0x3e95110d	0.2911457
246	0x3dbcee51	0.09225143
247	0xbb7f55c3	-0.003896103
248	0xbef839ef	-0.484817
249	0x3c1ecd58	0.009692512
250	0xbe002ad0	-0.12516332
251	0xbe052f24	-0.13006264
252	0xbedc4822	-0.43023783
253	0x3d9a30c4	0.075288326
254	0xbe5d5848	-0.21615708
255	0x3ee746f0	0.4517131

linear1.bias f4 [256]
0	0xbe964ee0	-0.29357052
1	0x3b8eed6e	0.0043618
2	0xbe36de62	-0.1785827
3	0xbe10ea9e	-0.14152
4	0xbe6b12e6	-0.22956428
5	0xbe1d7b4d	-0.15379067
6	0xbe007e00	-0.12548065
7	0x3d612f53	0.054976773
8	0x3dcdd06a	0.100495175
9	0xbe1f841d	-0.15577741
10	0x3ea4fc04	0.32223523
11	0x3db7ae7e	0.089688286
12	0x3e86eef6	0.26354188
13	0xbe1259ab	-0.14292018
14	0x3cc6626c	0.024216853
15	0xbcdf011f	-0.027222214
16	0xbed2256f	-0.41044185
17	0xbc88d827	-0.016704632
18	0xbeb39a0a	-0.3507846
19	0xbeb0b79b	-0.3451508
20	0xbecb3f9d	-0.3969697
21	0x3e45c0c6	0.19311818
22	0x3ecfe7a1	0.40606406
23	0xbe966617	-0.29374763
24	0xbeb9fe98	-0.36327052
25	0xbe93faea	-0.2890237
26	0xbe1fcde7	-0.1560589
27	0xbe966de3	-0.29380712
28	0xbd662f28	-0.056197315
29	0x3e9d2f3f	0.30700108
30	0xbe963f26	-0.29345053
31	0xbda5b501	-0.080911644
32	0xbe99bd45	-0.30027214
33	0x3d6e0399	0.0581089
34	0xbe446133	-0.19177704
35	0x3e5cac6c	0.21550149
36	0x3e1245ee	0.14284489
37	0xbe11ac09	-0.14225782
38	0xb9f1cd50	-0.00046120072
39	0x3bdf92ce	0.0068229204
40	0x3ea1a4aa	0.3157094
41	0xbe8a236a	-0.26980144
42	0xbe59815f	-0.21240757
43	0xbd8d0b62	-0.06886937
44	0x3cffbec8	0.031218901
45	0xbdd114fb	-0.1020908
46	0x3d300c65	0.04298057
47	0x3aa4d9f9	0.0012577168
48	0x3da4ecb8	0.08052963
49	0x3dea8f10	0.11453068
50	0x3e99c9de	0.30036825
51	0xbe25c080	-0.16186714
52	0x3d3f13ca	0.04664973
53	0x3c8a274d	0.016864443
54	0x3cf678b7	0.030086858
55	0xbd2f8abe	-0.042856924
56	0xbecc2f94	-0.3988005
57	0xbe6949a3	-0.22781996
58	0x3eb18919	0.3467491
59	0xbd809a29	-0.06279404
60	0xbe313a1c	-0.17307323
61	0xbecdab05	-0.4016954
62	0xbe41b2c5	-0.18915851
63	0xbe3e1247	-0.1856166
64	0xbea60d69	-0.32432106
65	0x3e149419	0.1450962
66	0x3cb0032a	0.021485884
67	0xbe6de256	-0.23230872
68	0xbe184ba6	-0.14872608
69	0xbde0cc53	-0.10976472
70	0xbdcb2624	-0.09919384
71	0xbdadc7ff	-0.08485412
72	0xbe8dcf77	-0.27697346
73	0x3da1e1cf	0.07904398
74	0x3eb50a7f	0.3535957
75	0xbd0adccd	-0.03390198
76	0x3e49eded	0.19719668
77	0xbe527e22	-0.20555928
78	0xbe8b1bc6	-0.27169627
79	0x3e7b2c29	0.24528565
80	0xbde1e40a	-0.11029823
81	0x3e53fc63	0.20701747
82	0x3ee6968a	0.45036727
83	0x3dd3dc10	0.10344708
84	0x3b85bde4	0.0040814746
85	0xbc6abe96	-0.014327666
86	0xbe961aac	-0.29317224
87	0x3ce62490	0.028093606
88	0x3e1852df	0.14875363
89	0xbe25b452	-0.16182068
90	0x3d941a5b	0.072315894
91	0x3daba37a	0.0838079
92	0x3c06ac94	0.008219857
93	0xbe34b575	-0.17647345
94	0x3e2ea5c2	0.17055419
95	0x3e2c2fbc	0.16815084
96	0xbe16e752	-0.14736679
97	0x3d996557	0.07490032
98	0xbd8b0495	-0.06787983
99	0xbe12311c	-0.14276546
100	0x3e942abc	0.28938854
101	0x3dd69a87	0.104786925
102	0xbe8e0893	-0.27740917
103	0xbdac6c52	-0.08419098
104	0xbd4a8b8c	-0.04944949
105	0xbd2bd5a1	-0.04195178
106	0xbe7657b5	-0.24056895
107	0xbda8ac37	-0.082359724
108	0x3e813a1b	0.25239643
109	0xbddee78a	-0.10884006
110	0xbdaefa16	-0.08543794
111	0xbd837675	-0.06419078
112	0xbdcad118	-0.09903163
113	0xbdef0658	-0.11671132
114	0xbeab84b4	-0.33499682
115	0xbd50063c	-0.050787196
116	0x3df0fc9a	0.1176693
117	0xbe897f1e	-0.26854795
118	0xbe66a2de	-0.22523066
119	0xbe15550c	-0.14583224
120	0xbe144030	-0.1447761
121	0xbd9ed129	-0.07754738
122	0x3cb432a6	0.021996807
123	0xbe64d2d6	-0.22346053
124	0xbd377934	-0.044793323
125	0xbeb49037	-0.35266277
126	0xbc7cfe43	-0.01544148
127	0xbe092b60	-0.13395452
128	0xbe17c143	-0.14819817
129	0x3edd9fb1	0.43285897
130	0xbe4058db	-0.18783896
131	0xbe1e2602	-0.15444186
132	0x3e5539bc	0.20822805
133	0xbe90dbae	-0.28292602
134	0xbe31aa02	-0.17350009
135	0x3e81859b	0.25297245
136	0xbeabf7c2	-0.33587462
137	0xbeed4989	-0.46345165
138	0xbe2ba374	-0.16761571
139	0xbd05768a	-0.03258375
140	0xbddebfba	-0.10876413
141	0xbe51d56b	-0.20491569
142	0xbe497ca7	-0.19676457
143	0xbd077614	-0.033071592
144	0x3cc5f391	0.024163993
145	0xbe3d2134	-0.18469697
146	0xbccfb4d6	-0.025354784
147	0xbdc9f9fb	-0.09862133
148	0xbcf8e073	-0.030380463
149	0xbe0a0007	-0.13476573
150	0x3e4e000b	0.20117204
151	0xbdc05591	-0.093913205
152	0xbe8f8a73	-0.28035316
153	0xbc3ce90d	-0.011530173
154	0xbd7c27c4	-0.06156136
155	0xbe0a6677	-0.1351565
156	0xbe4de646	-0.20107374
157	0x3d1e7080	0.038681507
158	0xbe839f05	-0.2570726
159	0xbe965864	-0.29364312
160	0xbdfae80d	-0.122512914
161	0x3dcc3784	0.09971526
162	0x3e4aff0f	0.1982386
163	0xbddbec96	-0.107384846
164	0xbe6246ea	-0.22097364
165	0xbd87532d	-0.066076614
166	0xbdccac4e	-0.09993802
167	0xb9589efe	-0.00020658594
168	0xbc8825e2	-0.016619626
169	0x3da4d25d	0.08047936
170	0x3dbb4e85	0.09145836
171	0x3e2d0a8e	0.16898558
172	0xbd468793	-0.048469137
173	0xbd1b3587	-0.037892845
174	0xbdc799c3	-0.097461246
175	0xbe75bc18	-0.23997533
176	0xbd41106b	-0.047134798
177	0xbe49b20b	-0.19696824
178	0x3e1197bc	0.14218038
179	0x3de8c9e1	0.1136663
180	0xbe28767f	-0.16451453
181	0x3e2388a2	0.1597009
182	0xbebd5fc4	-0.36987126
183	0x3c281b14	0.010260362
184	0x3e044b1b	0.12919275
185	0xbe69b250	-0.22821927
186	0x3da4f39c	0.08054277
187	0xbe731497	-0.23738323
188	0x3d5e0f2a	0.05421368
189	0xbe65dd28	-0.22447646
190	0xbda1c610	-0.078991055
191	0xbe7d9e26	-0.2476736
192	0x3e0af893	0.13571386
193	0xbc57fa98	-0.013182305
194	0xbe3f50f2	-0.18683222
195	0x3dcdd191	0.10049737
196	0xbd83ff2d	-0.06445155
197	0xbe316dde	-0.17327067
198	0xbe2f23f0	-0.17103553
199	0x3e70af06	0.23504266
200	0x3b63b725	0.0034746614
201	0xbda8df82	-0.08245756
202	0x3dfc3d13	0.123163365
203	0xbccfd785	-0.025371322
204	0xbe43ba10	-0.19113946
205	0xbe8291be	-0.25501817
206	0x3de71571	0.112833865
207	0xbddf6dda	-0.109096244
208	0xbd718d77	-0.058972802
209	0xbce51db0	-0.027968258
210	0xbe1486df	-0.14504574
211	0xbe6fad51	-0.23405959
212	0xbbce9847	-0.006304774
213	0x3c8d450f	0.017244844
214	0xbee4f69b	-0.44719395
215	0xbe8ee722	-0.27910715
216	0xbe10d3b3	-0.14143257
217	0xbc23b177	-0.009991041
218	0xbe789811	-0.24276759
219	0x3d9c0b86	0.076193854
220	0x3d29a0a9	0.041412983
221	0xbecb7cb3	-0.39743575
222	0x3e2e5060	0.17022848
223	0xbded04d5	-0.11573187
224	0xbeafed2b	-0.34360632
225	0xbe2c43a5	-0.1682268
226	0xbddcc575	-0.107798494
227	0xbe0752ec	-0.13215226
228	0x3da9cee5	0.08291415
229	0x3be0858f	0.006851859
230	0x3baaad36	0.0052086366
231	0xbc126813	-0.008935946
232	0x3e381696	0.17977366
233	0xbcbc2b2f	-0.02296981
234	0xbe5f3c53	-0.21800356
235	0xbe1911d6	-0.1494821
236	0x3dc75479	0.09732909
237	0xbebbe598	-0.36698604
238	0x3c527e0b	0.012847434
239	0xbe6025e4	-0.21889454
240	0xbe9cffd2	-0.30663925
241	0xbd7c4e42	-0.06159807
242	0xbc328db7	-0.010898045
243	0xbe5da780	-0.21645927
244	0x3dc176eb	0.0944651
245	0xbda04446	-0.07825522
246	0xbc904a12	-0.017613444
247	0xbe4d6509	-0.20058073
248	0x3dc5e7af	0.09663331
249	0xbe0ec91a	-0.13943902
250	0x3e49872c	0.1968047
251	0xbb5944e9	-0.0033152646
252	0xbe0cae75	-0.13738425
253	0xbe092dde	-0.13396403
254	0xbe04b8c5	-0.12961109
255	0xbe616d79	-0.22014417

linear2.weight f4 [3, 256]
0	0xbe343741	-0.17599203
1	0xbd6a0b74	-0.05713983
2	0xbf10a088	-0.5649495
3	0xbd296d78	-0.041364163
4	0xbdf2303d	-0.11825607
5	0xbd542ca1	-0.051800374
6	0x3e8a75da	0.2704304
7	0xbdeb88f4	-0.11500731
8	0x3eb9370c	0.3617481
9	0xbd13e526	-0.036107205
10	0x3e057826	0.13034114
11	0x3e6325c6	0.22182378
12	0x3ede657a	0.43436795
13	0xbdc996f5	-0.09843246
14	0xbefc0345	-0.49221244
15	0xbf1b2772	-0.60607064
16	0xbe5a65c2	-0.2132788
17	0xbce4a568	-0.027910903
18	0xbdc4b389	-0.09604556
19	0xbe1b4606	-0.1516343
20	0xbdfb7a83	-0.12279227
21	0x3eb4a03a	0.35278493
22	0x3e97a9b1	0.29621652
23	0x3c409f85	0.011756782
24	0x3b2af404	0.0026085386
25	0xbed0d36c	-0.40786302
26	0xbda9b161	-0.082857855
27	0x3be596a2	0.007006482
28	0xbd386d52	-0.04502613
29	0x3e1ba037	0.15197836
30	0x3bb51010	0.0055255964
31	0xbdea3622	-0.11436106
32	0xbefa47bd	-0.48882857
33	0xbed61ba6	-0.4181797
34	0xbe5431f0	-0.20722175
35	0x3ea07e14	0.3134619
36	0xbe8e321f	-0.27772614
37	0x3c69aa59	0.014261805
38	0xbeb526c8	-0.3538115
39	0xbe60e1c7	-0.21961127
40	0x3e30fb78	0.17283428
41	0xbdf69c5c	-0.12041542
42	0xbd9914de	-0.07474683
43	0xbdbe2951	-0.09285224
44	0x3dde5032	0.1085514
45	0x3e52e835	0.20596392
46	0xbf226372	-0.6343299
47	0xbdd18b40	-0.10231638
48	0x3e1a3a6d	0.1506135
49	0x3e9fb0a8	0.31189466
50	0x3e03b2ed	0.12861224
51	0x3eb9f1c9	0.3631728
52	0xbedaa647	-0.42704985
53	0xbc86cb74	-0.016454436
54	0x3c6a5c16	0.014304182
55	0x3c895d9a	0.016768266
56	0xbe066107	-0.1312295
57	0xbe9c96f0	-0.30583906
58	0x3e50087a	0.20315734
59	0xbe65e623	-0.22451071
60	0xbdbc2dc1	-0.09188414
61	0xbdaac881	-0.08339024
62	0xbf0fc4be	-0.5615958
63	0xbedcb70b	-0.431084
64	0xbdee9b98	-0.11650771
65	0x3df35a72	0.118824854
66	0x3ca11cb8	0.019667014
67	0xbe2de4e8	-0.16981852
68	0xbd64c310	-0.05585009
69	0x3ba2da8e	0.0049699014
70	0xbd65245a	-0.05594287
71	0x3e921b13	0.2853628
72	0xbe05b372	-0.13056734
73	0x3e7bd37c	0.24592394
74	0x3e58e8ce	0.21182558
75	0x3ce80bad	0.02832588
76	0x3d4ef832	0.050529666
77	0xbe8cc4cf	-0.27493903
78	0xbe49d157	-0.19708763
79	0xbe1ee5ac	-0.155173
80	0xbe14c7a2	-0.14529279
81	0x3e896606	0.2683565
82	0x3e82d8f0	0.25556135
83	0x3e16ff4d	0.14745827
84	0x3e98da3d	0.29854003
85	0x3e923a3d	0.28560057
86	0xbdca2999	-0.098712154
87	0x3e978eb9	0.29601076
88	0x3d75cd6e	0.060010366
89	0xbb22a6fe	-0.0024818773
90	0xbe034963	-0.12820964
91	0xbdd86832	-0.10566749
92	0x3c815b8a	0.01579072
93	0xbe36ebd8	-0.17863405
94	0x3ef8afc8	0.4857161
95	0x3e76756b	0.24068229
96	0xbe20180f	-0.15634178
97	0xbe026283	-0.12732892
98	0xbe85af0e	-0.2611012
99	0xbe1ac8a1	-0.15115596
100	0x3d88f757	0.06687801
101	0xbe6f9ea8	-0.23400366
102	0x3d352144	0.044221178
103	0x3e6605c4	0.22463137
104	0xbe1dafd3	-0.15399103
105	0xbe840ef3	-0.25792655
106	0x3e20aff4	0.15692121
107	0x3ed99186	0.42493838
108	0x3e41a023	0.18908744
109	0xbe8ed000	-0.27893066
110	0xbda521a6	-0.080630586
111	0xbd1f680f	-0.038917597
112	0x3e51dfe0	0.20495558
113	0x3e717ca6	0.23582706
114	0xbe261389	-0.1621839
115	0xbcadc5ea	-0.021212537
116	0x3bec078a	0.007203047
117	0xbea88986	-0.32917422
118	0xbcc49c44	-0.024000295
119	0xbee77731	-0.45208123
120	0xbcf1ad51	-0.029501589
121	0xbeb51b0d	-0.353722
122	0xbd97882a	-0.07399018
123	0xbef974c1	-0.4872189
124	0xbccf2fb9	-0.02529131
125	0xbdef309f	-0.116791956
126	0x3eb15080	0.3463173
127	0xbdeb2a5b	-0.11482688
128	0xbdd04369	-0.101691075
129	0x3ec77a29	0.38960388
130	0xbdd1b281	-0.10239125
131	0xbd86a3ad	-0.065741874
132	0x3e0b9e69	0.13634647
133	0xbbacfce0	-0.0052791685
134	0x3e92d8f1	0.28681138
135	0x3e986517	0.29764625
136	0xbe2169b1	-0.15762974
137	0xbe095265	-0.13410337
138	0xbe904430	-0.28177023
139	0x3ea99cfd	0.33127585
140	0xbe117905	-0.14206322
141	0xbf3016b9	-0.6878467
142	0xbf114e9f	-0.5676059
143	0x3eb30fa3	0.34972867
144	0x3ef3ecd8	0.47641635
145	0xbea5b789	-0.3236659
146	0x3e6e6409	0.23280348
147	0xbe05c970	-0.13065124
148	0x3e4dd876	0.20102105
149	0xbda84044	-0.08215383
150	0x3ec22d2b	0.37925085
151	0x3d95e4d9	0.0731904
152	0xbde63c1b	-0.11241933
153	0xbd89dfe1	-0.06732155
154	0x3ca47520	0.02007538
155	0xbe20a73a	-0.15688792
156	0xbe37e494	-0.1795829
157	0x3e2229b3	0.1583622
158	0xbdfbc2de	-0.12293027
159	0xbe57292e	-0.21011803
160	0xbf1cbd20	-0.6122608
161	0x3d613c55	0.054989178
162	0x3d174797	0.036933508
163	0xbea6abda	-0.32552987
164	0xbde75280	-0.112950325
165	0xbe19174e	-0.14950296
166	0xbefb93d2	-0.49136215
167	0xbf393338	-0.7234378
168	0xbed3efe7	-0.41393968
169	0x3c9b22a2	0.018937413
170	0x3e22a270	0.15882277
171	0x3e8ac861	0.27106002
172	0xbf0b2f11	-0.5436869
173	0x3e4666e9	0.19375195
174	0xbe4a5532	-0.19759062
175	0xbdbae58f	-0.09125816
176	0xbdc279c1	-0.09495879
177	0xbe2ba04f	-0.16760372
178	0xbea4ff40	-0.3222599
179	0xbe2f8714	-0.17141372
180	0xbf1ddffb	-0.6166989
181	0xbbe83434	-0.007086301
182	0x3ddbf3da	0.1073987
183	0xbeb848f9	-0.35993174
184	0x3e8e5ca8	0.27805066
185	0xbf476fcf	-0.7790498
186	0x3d884234	0.06653252
187	0xbd6f7995	-0.05846556
188	0x3eb7f68d	0.3593029
189	0xbd5700dd	-0.052491058
190	0xbd88f94a	-0.06688173
191	0xbe454ebb	-0.19268315
192	0x3e126340	0.14295673
193	0x3d865f36	0.06561129
194	0xbe1f4709	-0.15554442
195	0x3eafe15e	0.3435163
196	0xbf1f70fd	-0.6228178
197	0xbde4592c	-0.11149821
198	0xbdd85928	-0.1056388
199	0x3e9b5ec7	0.30345747
200	0xbe663df8	-0.22484577
201	0xbefd9388	-0.4952662
202	0x3e9ce5f3	0.30644187
203	0x3e5928d8	0.21206987
204	0xbe16dbab	-0.14732234
205	0xbf07fdd6	-0.531217
206	0x3e8cb2ff	0.27480313
207	0xbd62f0de	-0.05540549
208	0xbf0d6d43	-0.55244845
209	0x3dd667cd	0.10469017
210	0x3dba929b	0.09109994
211	0xbe2159eb	-0.15756957
212	0x3ea033d2	0.31289536
213	0xbd898023	-0.06713893
214	0xbdc38c9a	-0.09548302
215	0xbd38e697	-0.045141783
216	0xbd0ed00f	-0.03486639
217	0xbd2865bd	-0.04111265
218	0xbeb5cefa	-0.35509473
219	0xbd826c30	-0.063682914
220	0x3ebf2414	0.37332213
221	0xbc8efd62	-0.017454807
222	0x3e6dd8c1	0.23227216
223	0xbe72dc9e	-0.23716971
224	0xbe53506c	-0.20636147
225	0xbdd3b3bd	-0.10337017
226	0x3dd1dcec	0.10247216
227	0xbdbf7eb6	-0.0935034
228	0x3e2073c5	0.15669163
229	0xbb2ad33b	-0.0026065845
230	0x3dd1debe	0.10247563
231	0xbeaf4e58	-0.3423946
232	0x3e5decf6	0.21672425
233	0xbda9e27c	-0.082951516
234	0xbe4067a4	-0.18789536
235	0xbcb5bde5	-0.022185275
236	0x3d7f6d92	0.062360354
237	0x3cbebd0b	0.023283502
238	0xbc51d81c	-0.012807872
239	0xbe51875a	-0.20461789
240	0xbde0c8ec	-0.10975823
241	0xbe9cf223	-0.30653486
242	0xbd1ac150	-0.037782013
243	0xba3f458a	-0.0007296434
244	0x3e801a5e	0.25020117
245	0xbdb635ca	-0.08896978
246	0xbe0b664a	-0.13613239
247	0xbeeed303	-0.46645364
248	0x3e8cddd8	0.27513003
249	0xbd38a312	-0.04507739
250	0x3e1937c5	0.1496268
251	0xbd102d92	-0.03519971
252	0x3e5ef197	0.21771847
253	0xbd79cb3a	-0.060984828
254	0xbe93afcc	-0.2884506
255	0xbd879382	-0.06619932

linear2.bias f4 [3]
0	0x3df66fe3	0.120330594
1	0x3d946058	0.072449386
2	0xbcd75818	-0.026287124
